MNIST-model-300-100-hu/b0.npy (npy, 2480 bytes, 1 tensors)

array f8 [300, 1]
0	0x40017593031ab131	2.182409309627609
1	0xbfc012cc2729dfff	-0.12557365333827872
2	0x3ff28f6536adaae1	1.1600086341738278
3	0xbfe1eafd7edf4211	-0.5599353292437305
4	0x3fe2d0b5adda326c	0.5879772563508374
5	0x3ff9b96c2890cf86	1.607769163570056
6	0x3fc17af6fafb531d	0.13656508688895821
7	0x3ff31cbc97da6b16	1.194515793968724
8	0x3fe3cb241323bc08	0.6185474752254558
9	0xbfd333809dd2aef1	-0.30001845753098083
10	0x3fc713a9fb5b6ace	0.18028759740157912
11	0x3ff2e396fcebea36	1.1805639152286296
12	0x3ff683655229f523	1.4070790490653244
13	0x3fd64813a7b39b8e	0.34814921738728166
14	0x3fc5efcf4b4038bf	0.1713809125362271
15	0x3fa446d40cb71c63	0.039602877189786743
16	0x3fe35f5e1080ebe6	0.6053915331207207
17	0x3f774ff5017fd392	0.005691487363937224
18	0x4000682ecbfbb68a	2.0508705078307843
19	0x3fe368deccce2057	0.606551551828498
20	0xbfd075b05e758dca	-0.25718316292315235
21	0x3fddccd5135f7af8	0.46562697307483303
22	0xbfdec318f8e8b2e6	-0.4806578093292003
23	0xbfde7db63f503a7a	-0.476422845677838
24	0xbfc9957d3540e0b4	-0.199874545099879
25	0xbfd57c235bb88beb	-0.3357017894469993
26	0xbffe055b2b19f9cf	-1.8763076480532737
27	0x3fde6fd5c6328e22	0.4755758700868872
28	0xbff21403365c48bb	-1.1298858760315358
29	0x3fc243ef915a82e4	0.14269823644010338
30	0xbfe340bf31be9eef	-0.6016536685537782
31	0xbfe1486a851e675c	-0.5400898551917908
32	0xbff06743fb068261	-1.0252113156967868
33	0x3fe974c1214eb485	0.7955022478614785
34	0x3fde3ec0b712acb0	0.4725801265546563
35	0x3fa1fe9790031adf	0.03514550812683636
36	0xbfef416d3bf85dfb	-0.9767366572659165
37	0x3feb69709c7895c3	0.8566210800242334
38	0x3fe0ad062f96ff98	0.5211211137284293
39	0xbfe7413eb68f7517	-0.7267144742615156
40	0x3fe375d546dc7ac9	0.6081339248665582
41	0xbfe87dd137d8604f	-0.7653585520483918
42	0x3ff0eae6ddec16e3	1.0573490780674824
43	0x3ff5bee25581af46	1.3591025676823434
44	0x3fe6fa1f1769ee98	0.7180324036884995
45	0xbfe7dafb64b9ebc6	-0.7454812018689772
46	0x3ff1b7634896b80f	1.1072724185464755
47	0x3fed8318cfbfc1d2	0.9222530419920594
48	0x3ff158904110cffc	1.084121946490085
49	0x40019a423e9ae9a7	2.2003216639543157
50	0x3fe32d091c8f8038	0.5992475087950941
51	0xc00154c94d32b7fa	-2.1663995772460085
52	0x3feab7a63f63b7d3	0.8349181402279505
53	0xbff294442968302b	-1.161197816606555
54	0xbfec262be485f50f	-0.8796596015305641
55	0x3feba69df6aa9b92	0.864088994760879
56	0x3fd540075396e680	0.3320329967787998
57	0xbfe7ef7d951c3a61	-0.7479846870717887
58	0x3fec342584c75137	0.881365546544237
59	0xbfbc5c60a69b4149	-0.1107845694307389
60	0x3ffc7b734812681c	1.7801392379101406
61	0x3ff6c2d8f4f6eb7c	1.4225701874663335
62	0x4000a87bd4bc84aa	2.0822674388915248
63	0x3fdea130454569be	0.47858816876182775
64	0xbfc0c3351d57fba0	-0.1309572594909385
65	0x3ff4636d8381b778	1.2742743622761434
66	0xbfe3b6a976d85a56	-0.6160476037210383
67	0x400d74746dfaa496	3.68186269684936
68	0xbfdb913bf145c59b	-0.43073938905498615
69	0x3fc050a55975fc16	0.1274611174412434
70	0xbfb49d43f48e0664	-0.08052468033386045
71	0xbff1866c0f077445	-1.095317896563999
72	0x3fa847778ee6f603	0.04742025012408748
73	0x3fe9822afdcd6548	0.7971396405293172
74	0xc00536e4f29cf969	-2.651803870597338
75	0xbfbf9a921ae6dc32	-0.12345231205732501
76	0x3fccda7f4adba66b	0.22541800646949936
77	0x3fe7e238a1bc6fd0	0.7463648947627863
78	0x3ff9afa4253d4fd7	1.6053811506908369
79	0xbff793d7f420cfa9	-1.4735946213013256
80	0x3fe5e29525761d49	0.6839090091388381
81	0x3fe9b1bb23ca3c09	0.802945680525114
82	0xbfe683e7585c4ae5	-0.7036015249053348
83	0x3fef3a14c5190af9	0.9758399819914693
84	0xbfc90997f412fff0	-0.19560527246176163
85	0xbfdfeecb3ef2ee3a	-0.4989498247848335
86	0x3ff67b092b5fb502	1.4050380415240515
87	0xc0018ef6966db42a	-2.194806266043561
88	0xbff0c7c87083ba2e	-1.0487751383876787
89	0x3fff684938d4b4e7	1.9629604549366435
90	0xc0014f3ddac0b5f6	-2.1636921968517937
91	0xbff82a1dd3dbd3ca	-1.510282352040337
92	0xc002cf0a3d209b10	-2.3510937476706957
93	0xbff5f9835e94c7c2	-1.3734162993027756
94	0xbfd96f8e47b22bfa	-0.3974338245540704
95	0xbfe0d86c43b1022b	-0.526418811998217
96	0xbff0dae81f0e110f	-1.053444024380102
97	0x40009d6df8776e8b	2.0768699084708877
98	0xbffc17dfc9e113ff	-1.7558286558062262
99	0x3fe7519e0f7fd456	0.7287130644532549
100	0x4001031005fbcfd5	2.126495405909717
101	0x3feade2e956f2ba6	0.8396218222272764
102	0x3fe218bf37f82981	0.5655208676483171
103	0xbff6de6f4772abee	-1.4293053427634237
104	0x3fe4024917bea2ad	0.6252789939654427
105	0xbfe5e16f7742f275	-0.6837689713789376
106	0x3fe66f06013411a3	0.7010526679519454
107	0x3fd375ab6dcd3341	0.304056985118951
108	0xbfd5c6dc48a5eee4	-0.34026248068378906
109	0xbfd8aa1f57a22b89	-0.3853834491534874
110	0x3ffe44c67890cff1	1.8917908391567801
111	0xbfda6381cb6924dd	-0.4123234259064484
112	0x3ff1738375f4ee1b	1.0907015426336162
113	0xc00306f3db8e4fbe	-2.3783948090367337
114	0x3ffb84a2bc6d63aa	1.719881759685658
115	0xbfdc353aca79a2df	-0.44074888012850794
116	0x3ffe22ffc04dd232	1.8835446845888666
117	0xbff4a85794be55e0	-1.2910991487782368
118	0x3fede600b359e580	0.9343265059425647
119	0xbffd4517860b7571	-1.8293681369899242
120	0xbfed5c21939a5bbb	-0.9174964793081622
121	0x3fe18d8944afc3e4	0.5485273686919041
122	0xbfd8ec24464c9200	-0.38941294541498905
123	0xbfe0d85fb14e9d5a	-0.5264128172902176
124	0x3fc867d1c874e2f6	0.190668318633264
125	0x3ff509c1d5b8217c	1.3148821209343557
126	0x3feb3021272fff7f	0.8496251836186132
127	0xbfea34b3141f6a43	-0.8189330475827962
128	0x4002971a5123e38d	2.323780664355985
129	0x3fcec4aa170dc9e5	0.24037672162701465
130	0xbffb001ac51bd166	-1.68752552981922
131	0x3fe92f40f392aab2	0.7870182759555375
132	0xbff8006b12f26698	-1.500102113734476
133	0xbffc7e10e4089e4a	-1.7807778270306636
134	0xbf53aaa7eab5d6f5	-0.0012003555119383645
135	0xbfccde7d9503264e	-0.2255398728942048
136	0x40071f462e49ec66	2.8902705780324593
137	0x3ff59cc91202f740	1.3507776931359814
138	0x3fde6fcdd691cbb8	0.47557397798589873
139	0x3ff07c251513a23a	1.0303088019665112
140	0x3ffc7e83eb0e91f5	1.7808875257406929
141	0x3fd45b3d64e045e6	0.3180688367002332
142	0xbfd237c327ac6381	-0.2846534621654016
143	0x3fd753e99148deb2	0.36449660480455315
144	0xc0004b0f9fd80145	-2.036650894908379
145	0x3ff3f152e962598b	1.2464169613427625
146	0x3fbcdff345c99317	0.11279221013826334
147	0x4004060b00e2f220	2.502950674939953
148	0x3ff86364315b9f5e	1.5242654731791485
149	0xbffc76f393eb28a3	-1.7790408876485706
150	0x3fe258cfd2b085dc	0.5733412852316024
151	0xbfd699ce8df9bde4	-0.3531376253585832
152	0x40029171e47f7f84	2.3210180140885672
153	0xbfd64f5ec3856101	-0.3485943707833173
154	0x3fd41c673d145edf	0.3142335983734323
155	0x3fa06d99f1601b42	0.03208619185902829
156	0xbfec7e38e1c16130	-0.89040798275804
157	0x3fe0c39fd380f7c5	0.5238799220021454
158	0xbff605141e83efa3	-1.3762398902899597
159	0x4002708c8e0956ab	2.304955587062826
160	0xc0047382129c833d	-2.556400437737834
161	0xbfedf4ef99cbba04	-0.9361494067978247
162	0x3feb25212f02d703	0.8482824247537056
163	0x3ff4fed22bece515	1.312212153991202
164	0xbff1b3edefacacc5	-1.1064280855451198
165	0xbff6f6760299bde8	-1.4351711370071545
166	0x3fa91c593f2ba3da	0.049044407807577975
167	0xbfefe53972ad3748	-0.9967314948823764
168	0xbfd2a8e127b877cc	-0.2915575874229688
169	0xbff708485d9281a0	-1.439522138134727
170	0x3ff15cb24209e577	1.0851309375414908
171	0xbfc9645be9a6ff64	-0.19837521466069596
172	0xbfc6f9c93b8ebfd9	-0.1794978657540003
173	0x3fed7814a4abcf23	0.9209082809670445
174	0xbfc589f941b452a5	-0.16827312191221214
175	0x3fed14a7aa897c95	0.9087713557054423
176	0x3fe884899a84c11d	0.7661788957539418
177	0xbffb61d24d061dbf	-1.7113821991678007
178	0xbffbfa84f7244c4c	-1.7486619619346753
179	0x3fe037901fc4fcd5	0.5067825909135545
180	0xbfd4e6945b5246b1	-0.32657345693688017
181	0x3fe50631cceca37d	0.657006168597135
182	0x3fe50177c9737517	0.6564291891660642
183	0x3fefd60af8b12b8c	0.9948782784716612
184	0x3ff0971e6f9256c9	1.036894260241228
185	0x3ff2a06ecf73e34d	1.1641681769962873
186	0x3fcd883d6daddbfa	0.2307202134649911
187	0xbffd036c70874409	-1.8133358379020612
188	0x3fe289c70ea4392b	0.5793185506788964
189	0x3ff48bf09701a4f2	1.2841649912537005
190	0xbfe6b98906efcab3	-0.7101483474237597
191	0x3ff71ee2ac567a78	1.4450403911538654
192	0xbfd60fad319876f8	-0.34470681994740415
193	0xbfee314fcb5e8ca2	-0.9435194942529004
194	0xc00458f45f394006	-2.54343485253776
195	0x40024e15a639d6b9	2.2881272303009976
196	0xbffcd55f2689874a	-1.8020926957473926
197	0x3fc32362ff105a1f	0.14951741651812342
198	0x3fe0769056c3ad44	0.5144731230370003
199	0x3fe6b0f985571350	0.7091033558177546
200	0x3fc2e89b038ebb9c	0.14772355722149377
201	0xc002638a56171270	-2.2986036992827437
202	0xc0061ea02ceaef0a	-2.764953947944268
203	0xbfe368ac5ee1fa15	-0.6065275052240532
204	0x3fe18586631e3966	0.5475494323634791
205	0xbfd74e8d169a44f5	-0.36416938025747864
206	0xbfd1bf5ee528ee78	-0.27730533961196313
207	0x3ff875d243d1af93	1.5287649773772258
208	0xbfff42bba5945fff	-1.9537922351792074
209	0x3f788d502c881e1d	0.00599414174985882
210	0xbff11c7072f62e7b	-1.0694431772889448
211	0x3fe92db24f403d4a	0.7868281886930302
212	0x3fdad0f1b61d8e6b	0.4190029409857973
213	0x3fdc538401f16178	0.442597391030652
214	0xbfe9bd2958b71b3e	-0.804341004631034
215	0xbfcb8562da4c5d77	-0.2150081220540689
216	0xbfc94ef52c31142e	-0.19772209794806045
217	0xbfaaca846e498c05	-0.05232633444099836
218	0x3fdd8c2451f78bf6	0.46167858128154593
219	0x3fd5c710cda310b1	0.34027500230537117
220	0x3fe56217abc7413d	0.6682241778417289
221	0x3fe5ca4e829ad135	0.6809456396936527
222	0xbfe4f91513d51474	-0.6554055583334404
223	0xbfdd81602cc2973f	-0.46102146502595426
224	0xbfe4a39b3e5c3d76	-0.6449714868521557
225	0x3fdf93a21201f722	0.49338580854952074
226	0xbff99521712b1ceb	-1.5989088459626213
227	0xbfcda6ccbfa2be74	-0.23165282590115377
228	0x3fdbc01fc3a665d8	0.43360132318920597
229	0x3fe90d5432b68f6e	0.7828770628443473
230	0xbfe5f00b9e2d835e	-0.6855524148378256
231	0xbfcbed9ca33e0588	-0.2181888386804014
232	0xbfe639f28c0960a9	-0.6945736632433369
233	0x3fc6cfe394598048	0.1782192682612751
234	0xbff04185a84588c3	-1.0159966061697083
235	0x3ff1897059f74685	1.0960544122976057
236	0xbfd3693c8cc3d6ce	-0.30329812761861497
237	0x3f181de5588a404d	9.199821773564592e-05
238	0x4000cc573b71e516	2.099775757230087
239	0x3ff0ca2663c538ea	1.0493530175477255
240	0xbff8bd8d9d7e1d3a	-1.5462776329093928
241	0x3fd7f55f153ce9a7	0.37435128282563784
242	0x40073826aa100812	2.902417496313327
243	0x3fced8790dfba91e	0.24098122771040037
244	0xbfaa699e93a46e2c	-0.051587062380545085
245	0x3ff71858c735a46b	1.4434440404532107
246	0xc000dd30e387cdf0	-2.1080034042186
247	0x3fc6b357a690393d	0.1773480952546808
248	0xbfb4e84bbc72ffd5	-0.08166955328761046
249	0xc00a0dee6f9a55bd	-3.256802436730793
250	0x3ff73385048c24f6	1.4500780274996123
251	0xbff0ac5a2cdf3b8e	-1.042078185349712
252	0x3fdb47138ab50edb	0.4262131552279535
253	0x3fedd15b45a0b631	0.9318062171857432
254	0x3ff810544fc0a189	1.5039866557436616
255	0x4000a82604f5cb52	2.0821037662039226
