MNIST-model-300-100-hu/b1.npy (npy, 880 bytes, 1 tensors)

array f8 [100, 1]
0	0x3fed378927ea3f81	0.9130292682257136
1	0x3ff1bd1581aa3327	1.1086630883248263
2	0x3fea0916f405d2c9	0.8136095777577675
3	0xc013f20cc56cbf0a	-4.986376843225807
4	0x3ff84f7d0ee175e1	1.5194063740994965
5	0xc002ddbb21ab8608	-2.3582670813054882
6	0x4014000d8db5aaf0	5.000051702702635
7	0x4013ff5723ab557c	4.999355847675698
8	0x4013d63b5e4a5888	4.959210847175321
9	0x4013f9ae3e55af3e	4.993828748683709
10	0x40127b2a851ca9c7	4.620279388308012
11	0xbffa291859da86dd	-1.635032988539414
12	0x401400399c5bc5b0	5.000219767667133
13	0x3fe4b8b1975ee324	0.6475456196268152
14	0x40009fa117cc3066	2.07794397918592
15	0x40140017352e61a5	5.000088530498407
16	0x3ff3d3a67b407aaf	1.2391724409605265
17	0xc013c47c73dfe8d1	-4.9418809991277195
18	0xbfd38d8baa177853	-0.3055142556239662
19	0x3ff2f275e31d2814	1.184194457210201
20	0xc003583d850dad07	-2.4180860895918417
21	0xc002e5037be29d58	-2.3618230513126655
22	0xc0126257f1467b5d	-4.596038598944543
23	0x401097965504588b	4.148034408941508
24	0x401400380c1de851	5.000213803601654
25	0x401103b36e6c3835	4.253614163737486
26	0x4013f1fe2aa64eb5	4.9863211311346065
27	0xc00c3c5ca0649b9c	-3.529473546095188
28	0x3ffab76852a5cac8	1.6697772243903035
29	0xc013f2364379e5d2	-4.986535124125526
30	0x40046b70a8bb2c9e	2.552460973941904
31	0xbffcb8d31656f90e	-1.7951231835027701
32	0x40072eeb6ab0e109	2.897909959338112
33	0xc0010e7bec7fee6f	-2.13207230344215
34	0xbfae59167a223336	-0.05927343598259542
35	0xc00f786ee48850c1	-3.933805261049287
36	0xc01400ea77cae4af	-5.0008944242082825
37	0x3ff65d0bb45ae14c	1.3977162404172132
38	0x3ff3bb065965b779	1.2331603519519077
39	0x40140073c4a97530	5.000441620676881
40	0xc00e273a262be7a3	-3.7691538793705646
41	0xbfe2eb974826325e	-0.5912586602367573
42	0xc00dc6d67229c7d1	-3.7220887106895835
43	0xbff8e42bffa8e010	-1.5557060229020898
44	0x3ff6ebf3db30e117	1.432605606283749
45	0xbfe5625036bbe524	-0.668251139547611
46	0x4011847a6cbb4ad9	4.379373263293666
47	0x4013f8eb2683153d	4.99308452773158
48	0x400f2cb317a325d8	3.896825966516854
49	0xc0011c6b86e92645	-2.138876966467054
50	0xbfef779e83370218	-0.9833519518652478
51	0x3fe5a9de2f7b37e1	0.6769858291024741
52	0x40025c84b52ad36a	2.295174994821015
53	0xc00aa0e0ff7ae13e	-3.3285541495680766
54	0xbfd234d2473b7980	-0.2844739623668815
55	0xc00134bf7783b198	-2.15075581904075
56	0xbfde9b3a9d69b046	-0.4782244240984749
57	0xc013ead61b04f81c	-4.97933237283544
58	0xbff65e2c396406b9	-1.3979913942170425
59	0x4014003b9e18b672	5.000227422960608
60	0x4013e38d5143ec95	4.972218770762216
61	0xc011205a8af4d7ea	-4.281595393365913
62	0x3ffc34cb12d66a2d	1.762888978561601
63	0x3fec35f853974ec3	0.8815881378781899
64	0x401022f0f2913ec6	4.034122266879143
65	0x401309ed810bb894	4.759695068684
66	0xbff3a9de51df78dd	-1.2289717863237037
67	0x3fdd45cf55dcc502	0.45738585839269785
68	0xc013fde014125b0b	-4.9979251037791625
69	0xc010cec979b4bf4f	-4.201940442711773
70	0x3fd63d66457e1c70	0.34749752794636546
71	0x401400313c3474c4	5.000187817289035
72	0x400b8af24a9f7d42	3.442844946853854
73	0x4006d60250470218	2.8544966003103234
74	0xc009b70a37d50f3a	-3.214374958219108
75	0xbffd3284be3c8fa4	-1.8248336249462023
76	0xbffc857279695a10	-1.782579874290267
77	0xbffc252d71752a57	-1.7590765411320228
78	0xbff660e019f8da01	-1.3986512198003995
79	0x4002f834b4353496	2.371194274781895
80	0x400409286199cd03	2.5044715523778236
81	0x40131f6cad0daaa3	4.780688003501072
82	0xc0034a65ecea11a3	-2.4113272198612363
83	0xbfe0917866a34d37	-0.5177576069494653
84	0x4004060023cbcd10	2.5029299542017114
85	0x40088243617c1917	3.0636050811764437
86	0xbffc07131b2fdb05	-1.7517272054662396
87	0x3fc63ea24f01608e	0.17378643853840398
88	0x400956d3daeeb6f5	3.167396269235605
89	0xbfdd2713241e9fe9	-0.45550993468577744
90	0xc006d8f92f66502d	-2.855944032964564
91	0x3fe6ff73f3343f6d	0.7186832189636171
92	0xc009e8c74e21149d	-3.238661394485986
93	0xc013e37c8281e80c	-4.972154654673442
94	0xc010fafe601fc04b	-4.245110990465103
95	0x4013a70a11ea1130	4.913124351416897
96	0xbfe50c9f30c04b37	-0.6577907516642431
97	0x3fd5cd0e20a97676	0.34064057531018166
98	0xc013cc3669edafe6	-4.949426322109479
99	0x4010a7202aa01591	4.1632086429793995
