MNIST-model-300-100-hu/w1.npy (npy, 240080 bytes, 1 tensors)

array f8 [100, 300]
0.04678295297409741 -0.5328747319576456 0.351774224539691 1.430654983192384 -1.6484797360307668 0.42221395440226117 -0.0038349343912129513 0.4538553592736075
1.8384109163613471 0.8081239062489257 -0.44749874568658077 -0.27502703506188936 0.8920107865533864 -0.2048129243425188 0.22415032890145914 -0.2612060609879884
1.150474482056075 -1.7889411446142713 -1.8445649353475633 1.9459341461817419 -0.9798703629649383 -0.0604383164944623 -0.2432870772198878 2.233395898106333
-1.063599999163194 -1.1037595195720364 -3.253991120423759 -0.10549366924318712 -0.8531725950169418 1.321350073257976 0.2760616277716166 0.3940714877179396
-1.4409168719271952 0.08110061225229648 -0.5918210331988236 -0.20467355412394464 0.9595779386438748 -0.45219557375192 0.7230985609421525 0.6600469696986885
-0.11079304873974881 0.3918308884732612 -2.890388173993548 0.08732823712067952 -0.7055895919479903 -0.008049405864101234 0.08657620676538451 1.4170913389377569
-0.11363994093288446 -0.3896603925191445 -0.16692869656900594 0.8268830206723459 0.19396457372937248 -0.22050741862551462 0.8246407925068077 1.0752885956764966
1.672394861993616 -0.6239619607190313 1.1706998062469873 0.9276421278735244 0.4309882128869157 0.5184947705999832 -0.03563279950567091 0.03267320753082849
0.48767227239287597 1.105431930226587 0.5013915547879205 -0.6458595617477604 -0.2451234696351565 -1.2577307368929507 -0.5046799725318026 0.4009762439891903
-0.4248804461894539 -1.438018160296677 -0.055049947507952404 0.5978220313433904 -0.032158572085462876 -0.8983783200256954 1.0774745671221024 -0.27693102290569965
-0.452741684975934 0.02610381507571853 -1.291774538604062 -0.7287173199584716 -0.22488042637282227 -0.3264528997829809 -0.9783591871902518 -0.34741305100740333
1.5611589780281756 -0.9410775402541639 -0.5765044594451517 2.9727127432564533 -0.31240928254519523 0.25694272436481236 -2.3837625774755358 0.9435764747489281
-0.04274914892872398 0.21768627780758784 0.5211499218405847 0.43337159114349644 -0.6596812312298337 -0.9651702785610056 0.03278092662892527 -0.3774480535236766
-0.2740919781916149 -1.4800766973137667 -1.5827936851958329 0.072195618490862 0.734029180217576 0.4236192415069342 -0.16364175976347717 0.3026137154163599
0.5009100337610234 -0.10533906928831037 -0.5833834689943744 -0.07185964094316427 -1.8771987646220665 0.08590412722411404 -0.573107742939574 -0.21437804027728932
-1.3462415911195131 0.43477879018390253 -0.45778207404343424 -0.09446389508809037 0.10379818098634365 0.5570667498108467 -0.0345664733514144 0.2163647462204228
-0.08845767392752914 -0.1374552043085722 -0.3215398673969199 2.159907292873037 1.9651448415991097 -1.4653729745952642 0.5526649443607895 0.07164601620998437
-0.03094792006186917 1.2254685381415962 -3.268578546076841 -1.3430507172397796 0.007637774265882801 0.67895668257742 0.06900311133514783 0.5507555279131415
0.11111767779626437 0.037403655640395786 0.46348275542589124 0.6330601388566641 0.44478054362477465 0.40114886588380994 1.3986108850510133 2.065389836937457
-1.090403997525881 1.2611765355950182 0.11463899645490404 -0.42766088310325223 -1.7710820202736768 -1.4887585002162036 -0.6839507362458134 1.3181944981237752
-0.7172837456731239 -1.2613014000335852 0.14515823626997998 0.6168764961796337 -2.379318601404904 1.113565719028181 -0.14675347206759873 -0.08299441490035549
-0.7343126355771101 0.464010119951197 -0.023857981401951524 0.32954217849123535 0.4081938642260802 -0.022914787266402205 0.6900758873393723 0.13152217688709295
-0.0595445428390312 -0.5288686672436577 -0.4766639956652875 -0.18034505730760506 -1.6443938852122286 1.3993311095618526 -1.2592408436103892 0.5380822196796294
-0.025927015859098446 -0.20398283663917874 0.9347927142338746 0.15332137047331582 -0.24324359970931084 -0.03509344659609347 0.04677489052796864 0.13040081593667754
-0.012712172674341549 0.5608167205383155 -1.12664464248742 -0.02487655932962661 -1.0225401887252488 -0.5453336465771481 -0.14038393936188356 0.2567187576535847
0.27598735199587215 -0.47055897669078445 1.4452793164488962 0.08866158686194785 -0.40271411419347036 -0.46672373654318733 0.6216060090082501 -0.1172817464195912
-0.055239127439047804 1.9698717946799351 -0.8692182154352849 -0.4225500693038226 0.6744005872907991 0.3021996128847132 0.04461923565697699 -0.18287812355135752
2.560527298837411 0.012791731167512308 1.930549313084601 -0.46198049575450734 -0.5381520855776603 0.0585985780582733 0.6831165972352808 0.2626998517814138
0.00030095164516072875 -0.6996463279656111 -0.0018971516633765604 0.23041258500308395 0.19351571523645034 -0.6454406412142435 0.006018332199992613 -2.7877637226952747
-1.1853954907952344 0.08956699212586533 -0.14984840363008342 -0.17299438333070932 1.6098129133483527 -0.30415877729765667 0.06374974129220735 -0.8985850590625145
0.17674483658040963 -1.4152602146188968 0.005681883420542039 -0.8647885498217679 -0.05268837074384392 -0.2495956278057619 -0.23103876962961917 1.5331873035814678
0.3993846516651902 0.5012719861390013 -0.08241620768871777 -0.8453581806880018 0.9333318546448712 -1.0393875737767957 0.08830713195955552 -0.12167426288759282
00000000: 916f 116a eff3 a73f 6bee 534f 4f0d e1bf
00000010: a651 7e09 7883 d63f 44bb ca7a f6e3 f63f
00000020: 07ef a549 2c60 fabf 9ca4 84ad 8d05 db3f
00000030: e5b1 5cb9 706a 6fbf 4572 4c59 f70b dd3f
00000040: 1f1a a690 216a fd3f 978e 8eaa 26dc e93f
00000050: 8664 6ec7 d1a3 dcbf 85d3 46fe 0a9a d1bf
00000060: 0ca2 7d34 5a8b ec3f eab3 ec55 4f37 cabf
00000070: 0c7c 023e f5b0 cc3f 0e77 5da0 99b7 d0bf
00000080: 9c03 35ee 5768 f23f c564 e9bf 809f fcbf
00000090: 81a8 8a85 5683 fdbf 0153 e0d7 8b22 ff3f
000000a0: 4221 6817 195b efbf 11bc 8961 c5f1 aebf
000000b0: be73 19ec 0724 cfbf 1619 2bab fedd 0140
000000c0: 9ce7 c66e 8104 f1bf 7d5e f3bd ffa8 f1bf
000000d0: 388e 1d7f 2c08 0ac0 bea3 5513 a201 bbbf
000000e0: 741e 2e9d 304d ebbf 065d 73f9 3f24 f53f
000000f0: 646a bd63 feaa d13f 2737 029e 7738 d93f
00000100: 29e9 92d9 fe0d f7bf 1827 4f7d 02c3 b43f
00000110: 6890 d5a9 32f0 e2bf 41c2 a836 be32 cabf
00000120: 7e08 0ecb dcb4 ee3f da44 2ab4 c5f0 dcbf
00000130: a8ff e097 9f23 e73f adc0 95d2 1a1f e53f
00000140: 5f1b f6e8 ee5c bcbf b689 e3dc c113 d93f
00000150: 2c61 c0d5 831f 07c0 ea5d 73b2 245b b63f
00000160: 3b11 ba9f 3094 e6bf 1a24 82f7 347c 80bf
00000170: 8b47 abb8 db29 b63f 97eb c2f7 67ac f63f
00000180: fa7b d3d5 8117 bdbf d2a3 9a24 32f0 d8bf
00000190: 8e8e 4366 eb5d c5bf 2ef9 6c61 d375 ea3f
000001a0: b807 60c6 d4d3 c83f cdcf c24b 9639 ccbf
000001b0: d374 5816 7563 ea3f be13 83d0 6134 f13f
000001c0: 1d2d 641d 21c2 fa3f 938f e712 7ff7 e3bf
000001d0: c43a 54b8 2fbb f23f f579 338b 3eaf ed3f
000001e0: f6e3 d395 4f95 db3f 66f7 5b58 8297 e03f
000001f0: 6364 1559 763e a2bf c2c4 99eb 8aba a03f
00000200: 5dfa 45c3 0536 df3f 0170 4464 d9af f13f
00000210: 31c0 494d 660b e03f 2b7f f0ab e1aa e4bf
00000220: 6f53 c8b2 3460 cfbf 3811 e243 aa1f f4bf
00000230: 750c 1f9d 5626 e0bf ea03 9a43 98a9 d93f
00000240: 6bfd 45c1 3d31 dbbf f973 9854 1f02 f7bf
00000250: 7ae7 62b8 812f acbf 3c57 2eab 5b21 e33f
00000260: 3b47 c99e 1677 a0bf dc43 fee3 83bf ecbf
00000270: 9ffa c0f8 553d f13f fd2d a8e5 3cb9 d1bf
00000280: 0b7c a042 b8f9 dcbf 9444 3460 f5ba 9a3f
00000290: 4cc2 51c7 1bab f4bf 4e03 28fc a651 e7bf
000002a0: 4512 64be e1c8 ccbf 2b25 10b4 9ae4 d4bf
000002b0: 0f25 17ed b74e efbf b3f1 11f3 033c d6bf
000002c0: 04ce 27d6 81fa f83f 4789 4ca5 4e1d eebf
000002d0: 2d15 ea7a b972 e2bf e482 659e 1dc8 0740
000002e0: 65e6 df80 83fe d3bf 84e3 85e5 bf71 d03f
000002f0: 1e7d 3d1d f211 03c0 ae4a 8a4a c731 ee3f
00000300: e551 2969 37e3 a5bf 175c fcd9 24dd cb3f
00000310: d9c8 d399 42ad e03f e683 be32 5cbc db3f
00000320: 4a59 3dd0 1b1c e5bf 0db4 afc7 ace2 eebf
00000330: ed8c 9b5f a9c8 a03f d4ac 74e1 1b28 d8bf
00000340: 9c73 9b14 b98a d1bf 928c 28e7 64ae f7bf
00000350: e7b3 a378 1f53 f9bf ca2e 557c 697b b23f
00000360: 8403 6bc3 2a7d e73f 84a1 0ee1 931c db3f
00000370: c0d5 3893 36f2 c4bf 3f32 c2ea 055e d33f
00000380: 3fbd a77a 7407 e03f 5799 9551 80f7 babf
00000390: a873 0bcf 13ab e2bf 44d1 c0b7 6465 b2bf
000003a0: 464b 6292 0109 febf bbdc 0419 d0fd b53f
000003b0: a750 a00c e656 e2bf 0b5b fc57 bd70 cbbf
000003c0: 17f9 659f 348a f5bf 4a65 356b 6ad3 db3f
000003d0: dd8a 2d2f 4d4c ddbf 175e 0e2c c92e b8bf
000003e0: 897b b880 8492 ba3f 1d0d 04a6 7dd3 e13f
000003f0: c22d 2a61 b2b2 a1bf 4014 830a d7b1 cb3f
00000400: 1156 9980 29a5 b6bf e9cc 95d3 2198 c1bf
00000410: dd1d b5f3 1b94 d4bf b140 8a79 7d47 0140
00000420: f323 a9b7 3b71 ff3f 2b43 a5ee 2a72 f7bf
00000430: a79b b564 6eaf e13f a2b4 82b0 6457 b23f
00000440: 7907 2ec2 cfb0 9fbf 7785 d9e5 849b f33f
00000450: 4575 3e82 0c26 0ac0 8da0 b6bf 227d f5bf
00000460: bfa9 fa6a c948 7f3f f242 625d 03ba e53f
00000470: 8ab7 811a 30aa b13f 124d 8f0e ca9f e13f
00000480: b175 2448 3572 bc3f 9ae3 736b 9226 a33f
00000490: 5a1b 3493 b3a9 dd3f 864c 1956 0742 e43f
000004a0: 17fe 30d0 4877 dc3f de19 f34a 6cac d93f
000004b0: bffa b1ce b560 f63f e218 591b eb85 0040
000004c0: 39d2 4c76 4b72 f1bf 99cf 6d72 c72d f43f
000004d0: 17bd 9e34 fb58 bd3f a03e adc0 cb5e dbbf
000004e0: acbe b919 5a56 fcbf 3121 e16e f4d1 f7bf
000004f0: 4b07 88a7 ece2 e5bf 0857 331d 5317 f53f
00000500: 55ca b30a fdf3 e6bf 33b1 7860 4a2e f4bf
00000510: 4226 c38a 8b94 c23f 2f67 18c7 73bd e33f
00000520: 6063 de30 d808 03c0 a2c3 9249 2ad1 f13f
00000530: a169 8d59 d1c8 c2bf 1568 bf39 1f3f b5bf
00000540: f0fb 5a36 7d7f e7bf f804 8d80 57b2 dd3f
00000550: 47d6 7a07 3a6e 98bf d46f d113 3817 d53f
00000560: 27d9 5128 d91f da3f cab0 9d57 f976 97bf
00000570: 632f fc06 1a15 e63f a2e2 36fc b7d5 c03f
00000580: ee3d 4c50 9f7c aebf 8719 b6fb 7dec e0bf
00000590: c209 24b4 a981 debf 07d2 90fd 8b15 c7bf
000005a0: 93a9 6bf6 6f4f fabf 2e7f 7d04 a963 f63f
000005b0: 5281 11ba d925 f4bf b9a8 0234 f837 e13f
000005c0: 2d72 ca94 9c8c 9abf 31c1 270e 1c1c cabf
000005d0: d88d 0569 d2e9 ed3f 37fb fadf 08a0 c33f
000005e0: 333d db34 9b22 cfbf 1e48 deaa c4f7 a1bf
000005f0: eae6 2ee2 e0f2 a73f 6ded e853 f9b0 c03f
00000600: 00e1 2def d608 8abf 9b62 38e8 35f2 e13f
00000610: 3e27 5b88 bc06 f2bf 9cef 07a3 3d79 99bf
00000620: d3ba d619 535c f0bf fca1 2e8c 5f73 e1bf
00000630: 29b2 38d6 19f8 c1bf d314 1983 146e d03f
00000640: 6fa4 bbda c6a9 d13f 2b79 ee65 a31d debf
00000650: 5ebb 5b34 dd1f f73f 93c8 fb97 86b2 b63f
00000660: e24e 866b 11c6 d9bf 0013 2e3c cdde ddbf
00000670: 2100 f648 32e4 e33f 7f37 4a31 2d06 bebf
00000680: e1dd 9e8b 4d48 acbf 0e69 7749 9884 ff3f
00000690: 9939 0cb8 a2d0 ebbf e346 2572 0f0b dbbf
000006a0: 4d26 5a8a b094 e53f 7a09 8d0b 3d57 d33f
000006b0: bda5 d61b 55d8 a63f 6a49 e7e3 8c68 c7bf
000006c0: d92c 88bc f57b 0440 ff83 3018 8d32 8a3f
000006d0: d037 30ad 87e3 fe3f 51f3 29a4 1691 ddbf
000006e0: 5c91 fab8 8a38 e1bf 126c b400 a200 ae3f
000006f0: e85e 8f56 17dc e53f 8f2c 040a 13d0 d03f
00000700: 55a6 4079 21b9 333f 0c1f 2cb2 8063 e6bf
00000710: fa5f 6216 3b15 5fbf 8d68 96da 287e cd3f
00000720: e6ee 197a 1fc5 c83f 42c8 b021 73a7 e4bf
00000730: 975e 9bbf ada6 783f 819c 0f11 574d 06c0
00000740: 94a9 1c43 61f7 f2bf 744f fbc5 dced b63f
00000750: 5b79 7984 3b2e c3bf da06 6611 ae24 c6bf
00000760: 8e27 782f cbc1 f93f e139 5260 5677 d3bf
00000770: 697e fa2d e751 b03f 9720 2b74 35c1 ecbf
00000780: c0c3 6c26 939f c63f c0e3 11e5 e7a4 f6bf
00000790: badb 88f7 e245 773f 8312 6e09 59ac ebbf
000007a0: c1db 725a f8f9 aabf 323e 53e1 bff2 cfbf
000007b0: d669 d5ab ad92 cdbf b265 f868 ef87 f83f
000007c0: 3849 5ba4 848f d93f 75c6 5b8c 6b0a e03f
000007d0: 6cf2 ae84 3a19 b5bf bbc0 6e99 2c0d ebbf
000007e0: d078 00c4 dadd ed3f 8dd7 53dd 54a1 f0bf
000007f0: b714 c5d3 4b9b b63f 6dfb dd63 0b26 bfbf
