MNIST-model-300-100-hu/w2.npy (npy, 8080 bytes, 1 tensors)

array f8 [10, 100]
0	0x400b3a13a432b0c9	3.403357775494531
1	0x4013ff5b22f00a86	4.999371095562884
2	0xbfd0743e44af9886	-0.25709492404565315
3	0xc013ff86868f6d08	-4.99953661203768
4	0x4007e2769d13fabb	2.985577799961303
5	0x3fd84660cce9c622	0.37929553996136367
6	0x400e06435944978e	3.753058144956362
7	0x3ff1b6f98aba1979	1.1071715754529505
8	0x3fc4bae9e391b934	0.16195415126589696
9	0xc0065e4ff14cbb83	-2.7960509158651248
10	0x400ad56c74fa2d01	3.354210771450767
11	0x4013f2c0150d5e27	4.987060860577492
12	0x3feeb47ee3cb6741	0.9595331620323365
13	0xbfce45cfaf7bd218	-0.2365054709295158
14	0xbfd94943a9d33765	-0.39509669861296565
15	0xc013f3701b619753	-4.9877323416056525
16	0xc0015f99fbefee81	-2.1716804201694804
17	0xc009211c6a80e404	-3.1411674805244747
18	0xc00b6bc35b49b07d	-3.4276187068808768
19	0x3fa61c89663d32cd	0.04318646786723477
20	0x3fe16be4ffa76dcc	0.5444207185022889
21	0xc0111309f85cef69	-4.268592720672907
22	0xc013f740b151a6f6	-4.991457720383314
23	0x4013ebd06e1281ad	4.980287284736204
24	0x40044f0798866f8f	2.5385887065912764
25	0x3ffb5469ed25f4e9	1.7081088317493658
26	0x40074afd6d864b9a	2.911616187725895
27	0xc0040d1280680ba7	-2.50638294522783
28	0x3fcf6d50f3e63c35	0.24552356633327724
29	0xbfecd7e7a836562a	-0.9013555798907806
30	0xc0053fcfe20e29bb	-2.656158224160405
31	0xc011338326379b96	-4.30030498232272
32	0x3fc70867b5a0bb2d	0.179944003758885
33	0xc000ba54f385a387	-2.0909823441656417
34	0x4004c21a4d94ed99	2.5947767315935377
35	0x3fecfe2778e39104	0.9060246811973518
36	0x400a88c7561d8100	3.3167864539865377
37	0x4006ed412d3fddec	2.8658469710460306
38	0x4013ea7792d2325b	4.978971761779202
39	0xc0121a96d07102ee	-4.525965935609504
40	0x4002e5fd42aed436	2.362299462280613
41	0xc00175aeefa901b3	-2.1824625705196126
42	0x401261a08afbb04d	4.595338985072954
43	0x3ffa1c360b45ebd6	1.631887477908767
44	0x4012f6d07e2538d5	4.741029711744166
45	0x400e619660bb4df8	3.7976501042519395
46	0x3ffb68e84ce8c8e3	1.7131121639509324
47	0x3ffe00ae5f7055fb	1.875166294868335
48	0xc00e8d9d73c69d7c	-3.8191479725825825
49	0x40051b90d3b8128d	2.6384598293828447
50	0x3fc7c2bcf3964c4c	0.1856304349317689
51	0x400bef2ec0e535ec	3.4917883939694914
52	0x4012cdd662769890	4.701013124931833
53	0xbfc714dfd39c6b70	-0.18032453377312718
54	0x3ff7da01b2bcd2d5	1.490724275773734
55	0xbfc1f6cee6fcfb2c	-0.14034448889466355
56	0xc0034e42b614c8e3	-2.413213179120349
57	0x400cc9261e18a66b	3.5982172347328762
58	0x40065266ae73f45e	2.7902349118362926
59	0xc00096af5f77ac4d	-2.073576684798843
60	0xc00bf28179833f71	-3.4934110158136993
61	0x4003fc7f18c24996	2.4982892927448104
62	0x3ff908ad267206de	1.5646182538770783
63	0xbfdf3e69539a9551	-0.48818429150045
64	0xc008c93836ae5f78	-3.0982517501797098
65	0xc0042e89144271e9	-2.52272239520811
66	0xc002368522bc9602	-2.2766211236764784
67	0xc010955528c0f667	-4.145832669045922
68	0xbfd3b2e23092cb44	-0.307793185648894
69	0xc0032f4db5bed9c4	-2.3980974387042995
70	0xc013f674d0b490d3	-4.990679989834649
71	0x3ff6cafa8b713f2a	1.42455534429241
72	0x400dc217c05ebdff	3.7197718647873894
73	0xbfe75d287e9a717f	-0.7301218483658402
74	0xc0081e81c2a41dca	-3.0148959356626834
75	0xbff397ecabd2beae	-1.224590941605054
76	0x3fd59de177389399	0.33776127474475853
77	0xc009488fef314d99	-3.1604307829781644
78	0xbfe9be7594e308dd	-0.8044994266458861
79	0xbff3d1ddec333cf4	-1.2387370325630487
80	0xc003935b5888d104	-2.4469515721085617
81	0x3fc1ae1a6ac5709b	0.1381257077545158
82	0xbff7d23136993e96	-1.4888164646871807
83	0xbff1ea2ae4f61426	-1.1196698135183936
84	0xbfefe596d34c25c3	-0.996776020708403
85	0x3fe3c502654cea9d	0.6177989939236174
86	0x3fe307d244a579d2	0.5947047558545882
87	0x40105caa75bd992c	4.090494003007091
88	0xbfd4267bff7c2a1b	-0.31484889936169375
89	0x40123e2326c4700f	4.560680967082603
90	0xc00d7b561d9b6a0a	-3.685222846322408
91	0x400ec231cbeb63e1	3.844821541901624
92	0x3ff71d0d18014cb2	1.444592565316992
93	0xbff4acbea1bf461f	-1.292173988175257
94	0x4013ff998e2e67bd	4.99960920484767
95	0x400bb33d57d856db	3.462519346513415
96	0xc0115af2fb8d6398	-4.338817530159666
97	0xc00f0a226e18fc1d	-3.879948482644535
98	0xbff983019ca8dd5d	-1.5944839591519078
99	0x4013746cc3a05e10	4.863696152365733
100	0x3fd9ae66b5c41f30	0.4012696051654414
101	0xbfb6d6c35c9760bd	-0.0892145253232028
102	0x3fe22ff9e6910e22	0.5683564666036924
103	0xc014006f04025c5a	-5.000423491138543
104	0xc0062f85b78ba2d2	-2.7732042636383563
105	0x3fef3f062066f402	0.9764433510641768
106	0xbff3bc63443719a7	-1.233493105378878
107	0xc00abc0f85bcde7a	-3.3418264816535244
108	0xc0096f661f2dd965	-3.1793940006129326
109	0xc00242a008f870d5	-2.2825318051164722
110	0xbfbdd4f5b5f4d5ad	-0.11653075878424231
111	0xc01264af67ae83b1	-4.5983253669991635
112	0x3feaf1e81e1d055f	0.842029627623713
113	0xc014000442c9e3b6	-5.000016254017217
114	0x400837cc9d5cd31d	3.0272457403138007
115	0x40019bcda76ee215	2.20107584769381
116	0x3ffdb8c388fd3256	1.8576083518156756
117	0x40040da80138e530	2.506668099926763
118	0x4013fffb574f8dd2	4.999982227545347
119	0xc004e95d90b7acba	-2.6139479929020952
120	0xc00ffd15666cd8fb	-3.9985759736983915
121	0x3ff1b0cc625c49cb	1.105663665981967
122	0x40063e4838dc618e	2.7804111902480093
123	0xbff7d1725719aaeb	-1.4886344339708397
124	0xc00b1d433a6d4c54	-3.389288383923068
125	0xbfe62d63d7ad3070	-0.6930407726699865
126	0x3fc60e25f17bd922	0.17230676928711214
127	0xbff1cf34ad4e17b4	-1.1130873460510715
128	0x4013f0aa3998bda1	4.985024356792025
129	0xc002b783e47335eb	-2.339607033506345
130	0x40017dd17b6bf76a	2.186434711677909
131	0xc00a678d52ee2315	-3.3005625227855355
132	0x3febe3ee397d5aaf	0.8715735552639979
133	0x400924a21c599857	3.1428873267023323
134	0x40138f1e732f8b22	4.889764594818901
135	0xbff1fd1c6a817571	-1.1242946777705038
136	0xc013ffec8527efca	-4.999925690233747
137	0x40138237d4a01853	4.877166101714539
138	0xc00d11fea8f259d8	-3.6337865065536157
139	0xbfd9236b978385a3	-0.39278688236489695
140	0xc013d792b30ce935	-4.960520551360152
141	0x4014002069951943	5.000123643613111
142	0x3ff883a1b241a60b	1.5321366274969275
143	0xbffa2af4ff4efddf	-1.6354875538817095
144	0xc00c57ce63ad4896	-3.542874125219053
145	0xbffb15c9aa24700c	-1.6928192754921865
146	0xbfc8b70dfad25e53	-0.19308638331561898
147	0xc013272996ccddb0	-4.788244587186838
148	0xbfe06e73f82475bd	-0.5134830328494712
149	0xc0120b88e0f5ca05	-4.511264338495043
150	0x3fc8e4a8d116554f	0.1944781323369775
151	0xc0140012c4e1725c	-5.000071598301101
152	0xc003b11f22a10c10	-2.4614851670644455
153	0xc007396c2bc9fde3	-2.903038351156043
154	0x3fd75f11d1b08393	0.3651775882481669
155	0x3ffa765917018bc1	1.653893556468333
156	0x3fc9b3d5fdcec26a	0.20080065625144822
157	0x40025c8ddb991c4c	2.2951924472904803
158	0x4014000c106dab1f	5.00004602116931
159	0xc00ff9cfda59470b	-3.99697847924188
160	0x3ff10b9cb681b3d5	1.065334999958613
161	0x400d3e3652203433	3.6553770462110378
162	0x3ff171dafeb4f3ea	1.090296740482922
163	0x3fdf2a99d21de725	0.48697515029162936
164	0x401176adaf2b1fa0	4.365896927840282
165	0x4010a2333bd49acb	4.158398566104277
166	0x400388bb8e8a7ba2	2.4417639862071647
167	0xbffa515b6246761f	-1.6448625410915907
168	0x4011b5e81763cd38	4.427643170801552
169	0xc001aaf91b3c3148	-2.208482945227079
170	0x40128b5ba480a777	4.636091776230265
171	0xc00da134cf03cd03	-3.7037140057597084
172	0xbff0a1fed8487e03	-1.0395496796189725
173	0x3ffcbc0e2d3071dd	1.7959119572834574
174	0xc0060e2e9bd8f7ff	-2.756924836691723
175	0x4009a3429d60b705	3.204716901315694
176	0xc00107c4c6512190	-2.1287932866582153
177	0xc013da213c9c8a40	-4.963017413191267
178	0x4005aa9007de902e	2.708282529334631
179	0xbf957025a8ade16c	-0.020935619755137067
180	0xbff8f1b1b2d5919c	-1.559007357188512
181	0xbfd23c2e49db6214	-0.28492314541429775
182	0x400afb7cc88f1eb3	3.372796599261926
183	0x3fe82c5eb4996bb9	0.7554162528352811
184	0xc00cc2fdbdd90b04	-3.595210536180618
185	0x400835481a513b18	3.0260164314307865
186	0x4005ed31001f2c51	2.7408161172402647
187	0x3fddedb2db5d7177	0.4676329748379184
188	0x3ff9622221744e71	1.5864583308038187
189	0xc0006683bf63fc39	-2.050055976141746
190	0x400fc8d5394248eb	3.9730629418710257
191	0xc004b03fc47b9551	-2.5860591268744106
192	0xc014006eb1b4e414	-5.000422264733988
193	0xbff72b35a1e80d4d	-1.448049194762308
194	0xbff8732707da056a	-1.5281133944229972
195	0x4013fa5d529c9e38	4.994496622857291
196	0xc0133bbac83e053b	-4.808329705033709
197	0x400b5d0239e9dbc7	3.420414402436538
198	0xc01121f5c8addf40	-4.283164153683003
199	0xc0118af001fb4588	-4.385681181870844
200	0x4008693b19adea1b	3.0513822561454282
201	0xc00f711cc9c943c2	-3.930230690435992
202	0x4013fb04f6e29ff5	4.995136125166018
203	0xc00a986d527cf9b7	-3.3244272655858498
204	0x400831807634df4d	3.024170802582296
205	0xbfd2b10780bd6a51	-0.2920550114846821
206	0x4008be5713395cf7	3.0929395200615732
207	0xc00bbe8450c4b3c5	-3.468025809290767
208	0x3fff82b259547451	1.9694083680581296
209	0x4012fedb7eced31d	4.748884183286262
210	0x4013f3375188cb18	4.987515710806086
211	0xbfe3fd956c220549	-0.6247050392122812
212	0x3fe92798e979afb8	0.7860836563172517
213	0x401041431458e295	4.063732450413814
214	0xc004e7ccdf567de8	-2.61318373186781
215	0xc004bc4ec4577a93	-2.5919471110531247
216	0x40124e10dabbccf9	4.576236169540828
217	0xc01344d5137b1290	-4.817219070803404
218	0xc014013651497ff9	-5.001183767424657
219	0xbff598a521b326ec	-1.3497668568037922
220	0x401012213618e875	4.017704816122309
221	0x4004364f2a3e692f	2.5265181827827727
222	0xc00dbdfc7b62b201	-3.7177667273992943
223	0x40117ee54aef6c73	4.373921557296046
224	0x400db83d84320ff7	3.714961083200247
225	0xc013e469087e75eb	-4.973056919783157
226	0xc013fea0d9af9028	-4.998660470333597
227	0xbffd18f62c6d5e71	-1.8185941443861362
228	0x400a3ebcfca1e40c	3.280633901300922
229	0x4000fd817264dbdf	2.1237820565252004
230	0x3fe016b81b5aff72	0.5027733358656248
231	0x3ffbbfa4051ff2e0	1.7342872810542573
232	0x4008ccfdbb041adc	3.100093327582142
233	0x401246bbcdfb5af9	4.569075792757524
234	0xbfe125313ea6e083	-0.5357900832814412
235	0xc00701af854f4f86	-2.875823060496205
236	0xc012ecb89300bd57	-4.731172844810621
237	0xc00e3ceb0943ff3d	-3.77974517096291
238	0xc002a1ee2fd6418b	-2.3290675866375685
239	0x400bcab417676d57	3.473976309627385
240	0x4012eff008aa8173	4.734314093977775
241	0x400f699cb11186b3	3.926568396899563
242	0xbff21ea1ff65d343	-1.1324787117457198
243	0x3ff13130f10ca7e4	1.074509564971316
244	0x400ca3dcb41bb32a	3.580010802359898
245	0xbffd65065ca57bca	-1.8371642703057085
246	0x401025a1dd5c8292	4.0367502773011825
247	0x400ab831861c2674	3.3399382092800867
248	0xbff1e59d9f747f09	-1.1185585240090765
249	0xc011b6efc8eedfce	-4.428649081783034
250	0x3fd2e3190e56376b	0.2951109542853973
251	0xbfda53ea15e3a103	-0.41137172830214314
252	0x3ff59bf69c93547c	1.3505769840460564
253	0xc008353fa8b88873	-3.0260003262820248
254	0xbfd5d7244766ef61	-0.34125620816097607
255	0x4012cf7093515a4e	4.702577878799799
